trt_inconsistent/mini_graph.onnx (onnx, 105256 bytes, 10 tensors)

linear_64.w_0_deepcopy_62 f4 [64, 64]
000000 52 af 32 3e bf b6 a8 3d d3 98 75 3d bd ad fe 3d
       0.17449692 0.08237981 0.059960198 0.12435482
000010 36 8e cc 3d 27 00 a5 3b 07 0a 39 be d6 a8 00 bd
       0.09988062 0.0050354186 -0.18070231 -0.031411014
000020 11 90 93 bd f5 21 77 3e 1c a1 55 3d bf 53 89 bd
       -0.07205213 0.24134047 0.0521556 -0.067054264
000030 eb 28 ad be a1 b2 56 3e a5 15 19 3e 7b 6d 46 3c
       -0.3382028 0.20966579 0.14949663 0.012111063
000040 89 70 f0 3e b9 5b 25 3f 77 4e a6 bc 08 e9 29 bb
       0.46960858 0.6459308 -0.020301087 -0.002592625
000050 6f f6 a6 3e 9f 43 e7 3e f9 17 07 3f 47 50 11 3e
       0.3260989 0.45168778 0.52770954 0.1419078
000060 24 d8 aa 3d ba 05 dc 3d bb 0f 36 3e dd 39 e1 3e
       0.08342007 0.1074328 0.17779438 0.4398946
000070 01 cf 7d 3e bf fd 26 3e 04 27 cc bc e8 e5 93 be
       0.24785997 0.16307734 -0.024920948 -0.28886342
000080 f6 ec d3 3d 99 3a 94 be 2e e7 07 3f ed 16 cb be
       0.10347931 -0.28950956 0.5308713 -0.39665928
000090 04 45 2b 3f 52 60 a5 be 28 44 17 be f2 10 88 3d
       0.66902184 -0.3230005 -0.14772093 0.06643857
0000a0 74 43 25 bb 08 56 08 be 4d 4b f2 3d 92 59 2a 3e
       -0.0025217207 -0.13314068 0.11830769 0.16635731
0000b0 be 4f b0 3d e2 65 9b 3e fc 9d 91 3d 20 e0 5e 3d
       0.086089596 0.30351168 0.07110211 0.05441296
0000c0 b7 ba 80 3e 71 fe 8a bd bd 4c 74 3e ce 1f 63 3e
       0.25142452 -0.06786812 0.23857398 0.22180101
0000d0 96 18 88 3e 5a 87 fe bd 05 ab e3 3d df a3 b7 3d
       0.26581258 -0.1242816 0.11116604 0.08966803
0000e0 23 42 ae bd 0f cb f2 be 33 31 8c 3e 12 33 14 be
       -0.08508708 -0.47420546 0.27381286 -0.14472607
0000f0 54 3f c4 be 08 76 b9 be 3f 8e 95 3e 2e 7e b9 3d
       -0.38329566 -0.36222863 0.29210088 0.0905727
000100 b4 3d d2 bd 0c da a5 bd 36 62 8b be 05 1f 65 3e
       -0.10265675 -0.0809823 -0.27223366 0.22375114
000110 c4 13 8e 3d 68 f7 a8 3d e9 b6 d6 bd a4 6f c3 be
       0.06937364 0.08250314 -0.10484106 -0.38171113
000120 3e 99 2d be da 89 ba be 76 74 d9 3d 32 9c 08 3f
       -0.16952989 -0.36433297 0.10617916 0.53363335
000130 31 a6 04 3f 9f d8 23 3d f7 12 e3 bb f6 83 96 3c
       0.5181609 0.040001508 -0.006929751 0.01837347
000140 d7 6d 1b bf b5 b6 16 bf ba 2c 20 3f 67 c2 20 3f
       -0.6071448 -0.5887254 0.6256825 0.62796634
000150 bf f9 a1 be a0 ef 82 3d 2e 93 db be 65 d7 d0 3c
       -0.31635854 0.06393361 -0.42885727 0.025493333
000160 ea ce 0b 3b 04 b3 84 be ae f2 ef 3d e9 8b 5a 3f
       0.0021333047 -0.25917828 0.11716209 0.85369736
000170 cd 9e 2f 3e 0d 7f 17 3e cd c6 bc 3c 9a e6 33 3e
       0.17150421 0.1479456 0.023044014 0.17568436
000180 68 de 46 bd a5 ec e2 be 23 01 0e 3e e4 7d 89 3e
       -0.048551947 -0.4432117 0.13867621 0.2685386
000190 95 2d 40 be 87 aa 73 be 35 57 0e 3e 58 1d 08 3c
       -0.18767388 -0.2379552 0.13900454 0.008307777
0001a0 73 5f ca be 76 f6 7f be 0c c7 55 3e f2 ba 17 3e
       -0.39525947 -0.24996361 0.20876712 0.14817408
0001b0 c4 7c f0 3e bb dc f4 3d 84 c7 2a 3e b7 db c8 bd
       0.4697019 0.119561635 0.16677672 -0.09807532
0001c0 d6 9c 8a 3b be 1c 13 be 01 ce 98 be eb 2b cd be
       0.004230122 -0.14366433 -0.29844669 -0.4007257
0001d0 af 8d 47 bd 2f fd 02 3a ca 93 93 3d 60 3a 86 3e
       -0.048719104 0.0004996834 0.07205923 0.26216412
0001e0 65 d4 6e 3e d6 ad 1e bf 27 c3 6a bc 28 13 84 be
       0.2332321 -0.61984 -0.0143287545 -0.25795865
0001f0 71 63 5c be 29 80 49 3e ae 5a 2a 3f 96 63 4f bf
       -0.21522309 0.19677795 0.66544616 -0.8101133
000200 76 aa 87 3e 8f 77 0e be 0e d5 d9 be 28 2e 93 bd
       0.2649724 -0.13912795 -0.4254536 -0.07186538
000210 e0 8f fa 3d a8 0d c6 3e 42 53 e5 3b b9 5e ce 3e
       0.12234473 0.38682294 0.0069984505 0.40306643
000220 70 af c4 3e 54 37 94 bb 45 12 a2 3d d3 93 d7 be
       0.38415098 -0.004523197 0.07913641 -0.42104968
000230 7c 00 1e 3c d5 0f d8 bd c1 67 cd be fb 28 78 be
       0.00964367 -0.10549895 -0.4011822 -0.24234383
000240 14 57 a0 be b9 3b 4e 3e ad 67 82 bf 7d 8c 1a bf
       -0.31316435 0.2013997 -1.0187889 -0.6037062
000250 5a bf 88 3d f3 75 e1 bd 3e d2 09 bf d3 6d 32 be
       0.066771224 -0.11008825 -0.5383643 -0.17424707
000260 67 12 a4 bd f7 0a 21 be 68 03 47 be ce 6c 90 bf
       -0.080113225 -0.15726839 -0.19434893 -1.1283205
000270 3f 69 af 3d 1c 83 7f bc be d9 4e be 5b 17 51 bf
       0.08564996 -0.015595224 -0.2020025 -0.8167626
000280 3f 4e 21 be 41 8c 68 3f 33 a5 e2 be d1 56 2f be
       -0.15752505 0.9083901 -0.44266662 -0.17122962
000290 8a 69 ea be 71 79 da be 80 8d 62 3e 19 f1 46 bf
       -0.45783645 -0.42670777 0.2212429 -0.77711636
0002a0 41 2d 23 3e fb 9e 30 3f 6b 8b 24 3e 87 0d 90 be
       0.15935232 0.68992585 0.16068809 -0.2813532
0002b0 63 e5 05 bf af d5 0b 3d 9d 3f b9 3e dc ce 92 3f
       -0.5230314 0.03413933 0.36181346 1.1469378
0002c0 cb 31 8c be cb 1a 67 be 3f 71 1d 3e 4a fa 58 bf
       -0.2738174 -0.22568814 0.15375231 -0.8475691
0002d0 cf a3 03 3e a8 fd 03 3f 4d 0b d1 3d b3 73 bd 3e
       0.12855457 0.51558924 0.102072336 0.37002334
0002e0 98 5f 90 be cd de a3 3e 54 df 74 be 02 d7 91 3e
       -0.28197932 0.3200592 -0.23913318 0.2848435
0002f0 00 bd 0d bf 2a 5d f7 be 55 9c 4d bf 62 0e c7 3e
       -0.55366516 -0.48313266 -0.8031667 0.3887816
000300 ea 66 8f be 54 24 32 be 2d 42 03 bd bc a6 de be
       -0.28008205 -0.1739667 -0.032045532 -0.43486583
000310 5c 19 9c 3e 6f ec 64 3e 3f f8 f2 3d 8c 5a 81 bf
       0.30488098 0.22355817 0.118637554 -1.0105758
000320 41 9d 43 bd c5 2f 4b be 8e d6 05 3e f6 ac 3f 3e
       -0.04775739 -0.19842441 0.13070127 0.18718323
000330 b7 17 cc 3d 37 7c 10 3f 01 46 92 3e a8 43 c4 be
       0.09965461 0.56439537 0.28569034 -0.38332868
000340 cc aa 48 3d c9 a3 b7 3e da 20 dd bc 2f 31 72 3e
       0.04899101 0.35867146 -0.026993204 0.23651575
000350 e4 7e 22 be 53 a3 1f bf dc 6c 03 3e b2 da 0b 3f
       -0.15868717 -0.6235859 0.12834495 0.5463058
000360 bf 83 17 bf eb 67 66 3f 57 ad 98 bd 4a eb 52 3e
       -0.59185404 0.90002316 -0.07454937 0.20597568
000370 6f 1b e8 bd 96 86 0d be 03 3f c8 bd 41 07 63 be
       -0.113333575 -0.13820872 -0.097776435 -0.22170736
000380 0a e7 ee be 65 0c 81 3e 01 a9 f7 bd 00 cd ec be
       -0.46660644 0.2520477 -0.12092782 -0.46250153
000390 1c a4 6e 3d fb ed d1 3e 28 b9 aa 3e 2a 6f cc bd
       0.058261976 0.41001877 0.33344388 -0.0998214
0003a0 21 77 84 3e 80 b0 df bd dc 86 33 3f ff 0c e7 3e
       0.25872138 -0.109223366 0.70127654 0.45127103
0003b0 3a d7 1b be 1f 95 42 bd 51 a8 84 be 1f 42 a3 be
       -0.15218821 -0.047505494 -0.25909665 -0.31886384
0003c0 33 13 5c 3d 02 24 f8 3e 6b 46 f3 3d d5 a7 56 3f
       0.053729247 0.48464972 0.118786655 0.8384984
0003d0 7c d4 93 bc 37 6f 85 be d6 3c f8 3d 45 e8 10 bf
       -0.018045656 -0.26061413 0.121209785 -0.56604415
0003e0 4b 96 98 be 4b 4f 19 3e ec 97 d3 be ca 50 21 3e
       -0.29802164 0.14971654 -0.41326845 0.15753475
0003f0 92 5a 6e bd 12 a7 d3 3d ee 73 78 3f 4d e9 b5 3e
       -0.058191843 0.103346005 0.97051895 0.35529557

linear_64.b_0_deepcopy_63 f4 [64]
000000 ff 6c 98 3d fc 73 07 3e ab b1 2d 3f 81 e3 aa 3d
       0.07442664 0.13227838 0.67849225 0.08344174
000010 78 fc bf be 54 be 1a bf f7 4d 4f 3f 7f 1d 15 3e
       -0.37497306 -0.6044667 0.8097834 0.14562033
000020 40 58 eb 3e 9a dc b2 be 1d ef dd be af 56 a5 3d
       0.45965767 -0.3493393 -0.4334649 0.08073174
000030 72 78 29 bf 07 06 3c bf 49 90 7f bf d8 06 61 3e
       -0.6619941 -0.73446697 -0.99829537 0.21975267
000040 e9 a7 fb be 4e 19 82 3e 75 a4 ad be eb c4 34 bf
       -0.49151543 0.2540993 -0.33914533 -0.7061297
000050 17 97 19 bf 2d c8 1a 3e 93 d3 25 bf 7b 3e a7 3f
       -0.5999617 0.15115424 -0.6477596 1.3065943
000060 92 66 f1 be b1 d9 23 3f 0d 98 d9 be 75 c1 2c 3e
       -0.47148567 0.64004046 -0.42498818 0.16870673
000070 ed 6b 97 3e af b3 01 bf 7f 55 1a bf aa 3d f4 be
       0.29574528 -0.506648 -0.60286707 -0.47703296
000080 32 1b 2e bf 02 3d f1 3f cc 99 c0 3f 83 de 95 bf
       -0.68010247 1.8846743 1.5046935 -1.170853
000090 c5 45 8f bf 05 7d be be 4b 9a 31 3f d3 55 b7 bf
       -1.1193167 -0.37204757 0.6937606 -1.4323066
0000a0 3b 1a 01 39 34 b5 6c bf 2d 76 fc be 7c 33 9d 3e
       0.0001231217 -0.92463994 -0.4930891 0.30703342
0000b0 54 5b de 3e bc 78 35 3e 9c b0 a4 3d be 10 a7 be
       0.43429053 0.17721838 0.08041498 -0.3262996
0000c0 fe 7b f9 3c fa 76 51 3e 4c fa 9f 3e 3e 7d 1d be
       0.030454632 0.20455542 0.3124565 -0.15379807
0000d0 a4 13 ba 3e 99 79 c3 3e c2 22 06 bf 2a 70 8c be
       0.3634311 0.3817871 -0.52396786 -0.27429324
0000e0 14 68 0c bd 76 62 88 3e 70 32 22 bf c4 03 06 bf
       -0.034278944 0.2663762 -0.6335821 -0.52349496
0000f0 b2 5a 2f 3e 60 bc 2b bf 08 65 ad be d6 19 09 bf
       0.17124441 -0.6708431 -0.33866143 -0.5355505

linear_62.w_0_deepcopy_58 f4 [64, 128]
000000 a0 b1 36 3e 08 9f 75 be 3e 20 5f bd 0b 66 18 3f
       0.17841196 -0.23986447 -0.054474108 0.59530705
000010 5e 38 8c 3d 64 20 dc bd 20 56 10 bc d2 44 be 3e
       0.06846689 -0.107483655 -0.008809596 0.3716188
000020 90 3a bc 3e 16 6d c4 3d b0 46 1a bf 8d a3 ea 3d
       0.3676343 0.09591119 -0.6026411 0.11456976
000030 a0 3e 39 bf 79 27 2e 3d 34 32 a2 be fa e4 e1 3e
       -0.72361183 0.042518113 -0.31678927 0.44120008
000040 d0 56 b9 3e 18 2f ab 3f 99 b7 9b 3e 67 b6 ea 3d
       0.36199045 1.3373747 0.3041351 0.11460572
000050 8d 76 9c be ea 16 5e bd 34 e9 7c 3f 51 a1 c5 be
       -0.30559197 -0.05422107 0.9879334 -0.38599637
000060 ca 56 06 be 9f e2 87 be 6c 8d a5 be 26 e0 e9 be
       -0.13119045 -0.26540086 -0.3233446 -0.45678824
000070 62 ec 38 be 0c 12 c2 bd 4d b7 a3 3e 7f a4 81 be
       -0.18058923 -0.094760984 0.31975785 -0.25320813
000080 f8 b0 ee bc 4e 4d 70 3e 1e 26 c7 3d b6 22 49 3e
       -0.02913712 0.2346699 0.09724067 0.19642147
000090 64 1a fc be 48 09 8c 3e 15 66 38 bf d8 25 24 3e
       -0.49238884 0.2735083 -0.72030765 0.16030061
0000a0 32 9b b7 3e 3a 31 08 bf ac ac c7 be ce b3 67 be
       0.35860592 -0.53200114 -0.38998926 -0.22627184
0000b0 d1 12 9c 3e 54 ef 42 be 2b 6c 82 3e 84 16 cd 3e
       0.30483106 -0.19036609 0.2547315 0.4005624
0000c0 1c e5 82 3e b9 8d 04 be bc b9 9e 3e ae 98 2c be
       0.25565422 -0.12944688 0.3100108 -0.16855118
0000d0 56 2b 25 be b5 a6 eb 3e 40 19 68 3d 44 63 97 be
       -0.16129813 0.46025625 0.056664705 -0.2956792
0000e0 fa ef 2c 3c 90 ca 6e 3e 21 72 91 bd 67 26 a6 be
       0.010555262 0.23319459 -0.071018465 -0.32451174
0000f0 ee 34 30 3e ae b5 12 3e 23 1c 1f be 7e 46 01 3e
       0.17207691 0.14327118 -0.15538077 0.12624547
000100 e8 f6 3c bf c2 4c d5 be e1 39 d7 3d 4d 2c a4 3e
       -0.7381425 -0.41660124 0.105090864 0.3206505
000110 ec 00 ed 3e f1 6a e7 be f3 1e 84 3d fe 23 e1 be
       0.46289766 -0.45198777 0.064512156 -0.43972772
000120 28 ad 04 3f e1 3c 9a 3e d9 38 b1 be eb df 82 3d
       0.51826715 0.30124572 -0.34613684 0.06390365
000130 3c 9a d1 3e ad ab de bd 7b 2f 15 3e dc e6 92 3e
       0.40937984 -0.10872588 0.14568894 0.28691757
000140 41 6f f4 be 45 9e 99 bc 12 26 b5 be 0f ae 75 3d
       -0.4774113 -0.018752227 -0.35380608 0.05998045
000150 71 bb ae 3e 0d 82 30 bf 8f 8e a2 3d 93 b4 b7 bd
       0.3412738 -0.6894844 0.07937347 -0.08969989
000160 94 ed 9b 3e 2b 16 ce 3c b9 0b 30 3f be 1b ea 3d
       0.30454695 0.025157055 0.6876789 0.11431073
000170 61 2e 04 3f 04 0a 06 bf f3 e6 7b 3e f5 c2 42 be
       0.5163327 -0.5235903 0.24599819 -0.19019683
000180 dc d0 15 3f 12 61 81 bd ef 78 06 bf ae d1 44 be
       0.5852182 -0.06317343 -0.5252828 -0.19220611
000190 2a 59 df bd 66 c4 31 bd be 55 82 3e b8 83 86 3e
       -0.109056786 -0.04340019 0.2545604 0.26272368
0001a0 2c 19 99 be 3a 87 a3 be 35 da c5 3d e6 eb 6f 3e
       -0.29902017 -0.31939107 0.0966076 0.23429832
0001b0 41 e8 05 3f d9 78 be be 92 37 d4 be 50 ea 51 bd
       0.52307516 -0.37201574 -0.41448647 -0.05124885
0001c0 20 d1 df 3c 8b 65 02 bd ca 35 e0 3e 44 c4 a7 be
       0.027321398 -0.03183512 0.43791038 -0.32766926
0001d0 8f 17 fb 3e 32 17 95 bc f3 3c b4 be 98 bf 84 bd
       0.4904141 -0.018199537 -0.3520275 -0.06481856
0001e0 3f 2c 1b be e2 03 46 3e f6 91 9d 3e 06 92 61 be
       -0.15153597 0.19337419 0.30775422 -0.2202836
0001f0 01 8e bf bd 45 67 e1 3e ca e1 6a be 54 8d cc 3e
       -0.09353257 0.440241 -0.22937694 0.39951575
000200 83 a6 7e bd 2a 52 08 3e 0c cd e1 be 1a ef a6 bd
       -0.062170517 0.13312593 -0.4410175 -0.08151074
000210 ae 2b a8 bd be 58 65 3e 46 15 07 3f 3b 59 08 be
       -0.08211456 0.22397134 0.52766836 -0.13315289
000220 ff 85 c9 3d 03 e0 96 3e 11 84 25 3f 7b de 02 3d
       0.09840011 0.29467782 0.6465464 0.031950455
000230 79 9a 35 3e 81 43 22 3f d9 66 9e 3e 8f 68 b7 be
       0.17734708 0.6338425 0.30937842 -0.3582196
000240 59 06 0c bf 5e e3 26 3e bb 7a 42 bf 70 f5 1f bf
       -0.54697186 0.16297671 -0.7596852 -0.6248388
000250 2b e5 18 bf f1 25 3a be 0b d9 b2 3f 2b 94 27 be
       -0.5972468 -0.18178536 1.3972486 -0.16365115
000260 c2 16 1c 3e 79 0b 86 be 45 f3 57 bf 08 1a 69 bf
       0.15243056 -0.26180628 -0.84355575 -0.91055346
000270 b5 a5 5e bf aa 35 25 bf 41 37 de 3e 62 a8 32 3e
       -0.869716 -0.6453501 0.4340153 0.17447045
000280 26 85 48 be 44 d0 cf bd ce e6 83 be 7d b0 a5 be
       -0.19582042 -0.101471454 -0.25762028 -0.32361212
000290 30 dd 08 bf d3 0a 91 be 32 fb 60 be f7 48 95 be
       -0.53462505 -0.2832857 -0.21970823 -0.2915723
0002a0 c1 95 54 be c4 f1 eb be 8d be b4 3e f7 9e 20 be
       -0.20760252 -0.4608289 0.3530163 -0.1568564
0002b0 ff 24 8d 3e fc dd 37 be 76 5f bb be 3a f5 0e 3f
       0.27567288 -0.17955774 -0.36596268 0.55842936
0002c0 ca ee 8e 3f 41 85 73 3f 6b 6f d8 3d 66 f8 39 be
       1.1166623 0.95125204 0.10568126 -0.18161163
0002d0 e9 71 e3 3d 57 9a 50 bf c8 03 9a bd 43 23 85 be
       0.11105711 -0.81485504 -0.075202525 -0.26003465
0002e0 bd a6 9c 3e 87 b8 e7 3d 2c b5 05 3f 69 85 9e be
       0.3059596 0.11314493 0.5222957 -0.3096116
0002f0 e3 18 96 be 5d 4f 62 3e 42 d1 6b bd 18 fd 96 3e
       -0.29315862 0.22100587 -0.05757261 0.2948997
000300 68 82 07 3e df fb 19 3e d9 ff cf 3d 5a d4 98 3e
       0.1323334 0.15037487 0.10156221 0.2984951
000310 4b da 80 3e f2 ed 55 bf 68 7c 1e bf 56 37 c0 bd
       0.25166544 -0.835662 -0.6190858 -0.093855545
000320 c3 05 8a bd 95 8e 14 be 37 93 4b 3d b0 2f fd be
       -0.0673938 -0.14507516 0.049700942 -0.49450445
000330 ab 03 dc bd 36 f7 55 be 19 d3 8c be 60 ee 04 bf
       -0.10742887 -0.20895085 -0.27504805 -0.5192623
000340 44 f4 d8 bc dc 51 34 bf ff 41 63 3e c1 14 26 be
       -0.026483662 -0.7043741 0.22193144 -0.16218854
000350 dd f7 98 bd 98 7f c1 3e 4d e0 9e be 95 45 8c 3d
       -0.07469151 0.3779266 -0.31030503 0.06849209
000360 3c 88 2a 3e 99 fa ae be 51 97 ce be 00 70 85 3e
       0.16653532 -0.34175566 -0.4034982 0.26062012
000370 ad 15 24 bd 9b b9 53 3e a4 c6 9e 3e 70 70 e4 be
       -0.040059734 0.20676272 0.31010926 -0.44617033
000380 a5 d0 17 3f a3 0b b7 be 34 c0 14 3e d4 ac df be
       0.5930274 -0.35751066 0.14526445 -0.43686545
000390 ec 4d 5b 3e 5e a1 4b 3e c4 b6 c4 be 80 df cc 3e
       0.21416444 0.19885775 -0.3842069 0.40014267
0003a0 c3 49 ae be 9d d1 42 bf 11 f8 fc bd ba d9 bd be
       -0.3404065 -0.76101094 -0.123520024 -0.37080175
0003b0 d7 c7 7a 3e c0 26 2a 3f d5 44 12 3f 75 90 d3 be
       0.24490295 0.6646538 0.5713628 -0.4132115
0003c0 eb 06 57 3e 2e 12 7c be fb 89 24 3c bc cb 6d be
       0.20998733 -0.2461631 0.010042663 -0.2322225
0003d0 08 07 3b 3e 32 e4 67 3f b6 c6 41 be 75 24 a3 be
       0.18264401 0.90582573 -0.18923458 -0.31863752
0003e0 8b 98 51 bf b9 53 96 3e 27 ef 58 bf 90 84 02 be
       -0.8187339 0.2936075 -0.8473992 -0.12745881
0003f0 a9 a1 0e 3f b7 25 35 bf 3f d7 58 3f c1 62 a4 be
       0.55715424 -0.70760673 0.8470344 -0.32106593

linear_62.b_0_deepcopy_59 f4 [128]
000000 b8 b1 10 bf eb 9a ef be 03 3e 81 bf 7e 75 8a bf
       -0.5652118 -0.4679788 -1.009705 -1.0817106
000010 24 e4 80 3f e0 60 a4 3f 35 ce 92 3f d1 b0 30 bf
       1.0069623 1.2842064 1.1469179 -0.690198
000020 ea eb e0 be b4 5e 85 be b7 04 5b 3f b4 a8 cf 3e
       -0.43929988 -0.26048815 0.8555407 0.40558398
000030 f5 2e 2c 3f b7 a3 43 be d7 a2 4f bd a5 0a 92 bf
       0.6725915 -0.19105421 -0.050692406 -1.1409498
000040 f3 5e 54 3c dc a3 ba bf 56 ac 27 40 75 e5 2b 40
       0.012962091 -1.4581256 2.6198936 2.68588
000050 af cf cd be cd ef 86 bf f6 d4 cc 3f 4d 75 9a c0
       -0.40197513 -1.0541931 1.600249 -4.826819
000060 ef 08 cb 3e a8 d3 2e 3f 72 13 2f 3d e5 90 13 3e
       0.39655253 0.6829171 0.042743154 0.14410742
000070 71 f7 f6 3e c9 f8 25 3f c7 53 66 3f c7 aa 60 3f
       0.48235658 0.6483274 0.89971584 0.87760586
000080 91 26 0a bf 0c 8a f3 3d e9 08 09 3f be 09 be be
       -0.539651 0.11891565 0.5352922 -0.37116808
000090 d4 50 5d bf 8d 09 72 bf 23 6b e8 3e 17 2d 74 bf
       -0.8645146 -0.94545823 0.4539424 -0.953813
0000a0 8c 40 d5 be c1 e0 57 3f 09 ec d6 3e 82 eb d3 3d
       -0.41650808 0.8432732 0.41976956 0.10347654
0000b0 d9 e9 8a bf 77 a1 e6 be db fc ba bd ec 17 04 bf
       -1.0852615 -0.45045063 -0.091302596 -0.51599
0000c0 60 28 01 40 1e e6 cf 3f e9 2b 11 c0 86 36 be 40
       2.0180893 1.6242101 -2.268305 5.9441557
0000d0 c0 77 8f 40 85 1d 09 40 fb bf d3 40 b6 aa a2 40
       4.483368 2.1424267 6.617185 5.0833387
0000e0 28 23 dc bf d8 9e 74 be 58 23 b8 bd 76 c2 38 bf
       -1.7198229 -0.23888719 -0.08991116 -0.72171724
0000f0 b2 0e dd bf b6 22 8a 3d ee 75 cc 3f 18 67 8d bf
       -1.727011 0.06744902 1.5973489 -1.1047087
000100 e1 a2 b6 be 51 0e d3 3f 73 54 b6 3f 8d d2 b7 bf
       -0.35671142 1.6488744 1.4244522 -1.436113
000110 e9 1e f5 3e 6e 82 94 bf 8c 1c 2a 3f ea e4 34 bf
       0.47875145 -1.1602304 0.6644981 -0.70661795
000120 42 d4 db 3d a8 93 a5 bd 72 65 ac be 79 51 88 3f
       0.10733844 -0.08084804 -0.33671147 1.0649863
000130 20 c3 a4 3d 15 9b 85 3f 5b 70 06 bf 62 13 5c bf
       0.0804503 1.0437952 -0.5251519 -0.85967076
000140 b2 cc 33 bf 4c db 3d 3f a9 66 6f 3f 7d 57 54 3f
       -0.70234215 0.74162745 0.9351602 0.82945997
000150 1f 7d 8c 3e 8c f2 be 3d fa c9 a9 bf 70 77 8e be
       0.2743921 0.09323606 -1.3264763 -0.278255
000160 46 5c 85 3e 41 57 85 be 59 92 3e be 1b 6b b0 3e
       0.26046962 -0.26043132 -0.18610515 0.34456715
000170 a2 69 b0 be 1f 21 c7 3d 34 c4 bf be d2 76 40 be
       -0.3445559 0.09723114 -0.3745438 -0.18795326
000180 bd b9 c8 3f 18 bd f0 3f ad 55 3c 3e af b6 10 3e
       1.5681683 1.8807707 0.18392058 0.14132188
000190 e7 86 d0 3e 0a 31 53 40 97 2b 7b 40 60 c6 91 be
       0.40727922 3.299868 3.9245355 -0.2847166
0001a0 65 05 e6 3f 51 a0 c7 be 57 fc 94 3f 32 99 ae 3f
       1.7970396 -0.389895 1.1639508 1.3640501
0001b0 1b 0a 04 c0 f8 b0 b1 3f db 04 35 bf b4 12 cb bf
       -2.0631168 1.3882132 -0.70710534 -1.5865083
0001c0 5d 09 97 be 1e dd 71 3e 6f 96 bc 3f fa 23 cb 3e
       -0.2949933 0.23619506 1.4733409 0.39675885
0001d0 f1 6f db be 75 e3 ea 3f 6f 7b 47 3e 03 29 de be
       -0.42858842 1.8350664 0.1948068 -0.43390664
0001e0 ea e3 a8 bf ab 24 6f 3e 8a c9 8c be 1e 0a 3a bf
       -1.3194554 0.23353831 -0.27497512 -0.7267169
0001f0 6b b5 3c 3f a5 d7 5c be d0 82 f4 3e 74 00 90 bf
       0.7371432 -0.21566637 0.47756052 -1.1250138

linear_66.w_0_deepcopy_66 f4 [64, 64]
000000 36 4d c0 bc 23 63 38 3e 52 76 4a 3e cb 88 0b 3d
       -0.023474317 0.18006568 0.19771698 0.034066003
000010 ba 39 44 3c c4 96 01 bd 42 36 3f be 45 ef 09 bf
       0.011976654 -0.031637922 -0.18673041 -0.5388072
000020 59 f7 3e 3d 50 3c 66 bd 13 c2 a2 be a9 6d 86 3c
       0.046622608 -0.056209862 -0.31788692 0.016409712
000030 f0 96 14 3d f9 cb 17 3e c4 c1 93 be 9a bd 5c be
       0.036276758 0.14823903 -0.2885877 -0.21556702
000040 b0 42 f5 3d 81 dd 2f bd 4f 4c bb be e5 ff 88 3d
       0.1197561 -0.042935852 -0.36581656 0.06689433
000050 88 7c 3d be ab 13 55 bc a0 14 71 3e 25 82 f8 3d
       -0.18504536 -0.0130051775 0.23543024 0.12134198
000060 ab c5 71 3e b7 f3 6c be 65 3d c9 3b 86 80 61 3d
       0.2361056 -0.23139845 0.006141352 0.05505421
000070 6a b5 7c 3e c0 5a 32 3e 7b dd 15 be f0 c9 0d bd
       0.24678579 0.17417431 -0.1463527 -0.03461641
000080 3e b2 93 3e 1c 52 ad bd 5c 83 32 3d df 87 74 3c
       0.28846925 -0.08462927 0.043582305 0.014924972
000090 0e 3c 11 be 9f a3 cf be 5b 17 1f bc e5 ee c9 bd
       -0.14183065 -0.4055452 -0.009710158 -0.09860019
0000a0 72 ac 48 be a0 d9 03 be e2 5d e5 3e 40 20 a5 be
       -0.19597033 -0.12875986 0.4479819 -0.32251167
0000b0 dd 12 79 3c c1 fd c8 bd ec e8 87 3d 11 e3 2d 3e
       0.015202251 -0.09814025 0.06636223 0.1698115
0000c0 fb b1 aa bd f2 70 9c bc f3 3b db 3d 80 c3 b9 3e
       -0.08334728 -0.019096825 0.10704794 0.36281967
0000d0 e9 b8 13 bc 86 d3 ee bd 41 36 71 3c 01 9d b0 3d
       -0.009016254 -0.11661439 0.014722408 0.08623696
0000e0 ec 49 ff 3d 09 9b 13 3d d1 91 c4 3d 91 cb ca 3c
       0.12465271 0.036036525 0.09598125 0.024755271
0000f0 7b 8d d4 3d a4 23 10 3e cb e7 79 3e 9e 4d 3e bc
       0.10378548 0.14076096 0.24404828 -0.011615185
000100 8b 66 f3 3a 21 69 73 be 60 f2 3a be f9 a9 d7 3d
       0.0018569989 -0.23770572 -0.18256521 0.105304666
000110 49 94 54 3e b4 4f 96 3e ba 33 a0 be 20 e3 0b be
       0.20759691 0.29357684 -0.31289464 -0.1366086
000120 09 99 3f 3e 23 11 f2 bd 5c b1 36 3e 14 16 c6 bd
       0.18710722 -0.11819675 0.17841095 -0.0967218
000130 07 a1 6f bd 68 bd ff bc 20 3c ab 3d 8f db 3b bc
       -0.058503177 -0.031218246 0.08361077 -0.011465921
000140 43 28 05 3e c9 49 18 3e 8e e6 db 3d 9c 30 03 3e
       0.1300364 0.14871897 0.10737334 0.12811512
000150 64 ae 1a 3e 87 21 54 3e dd 25 f8 bd 76 9b 93 3b
       0.15105587 0.20715915 -0.12116597 0.0045046164
000160 87 be 6a 3d 0c 2f 9d 3d 09 b9 87 3b d8 0d 97 bb
       0.057310607 0.07674989 0.004141931 -0.0046098046
000170 08 09 89 be 13 3b 81 3e 3b 4b 82 be a0 a3 6b be
       -0.26764703 0.25240383 -0.2544802 -0.23011637
000180 a8 5e f8 3d 7f 55 4a be 9a 71 3c 3e 1f 0f 83 3d
       0.12127429 -0.19759177 0.1840271 0.063993685
000190 58 8c 73 3c 30 db 1e 3b 68 b4 9e bd d4 d5 47 ba
       0.0148650035 0.0024239533 -0.077492535 -0.00076231104
0001a0 a7 89 fa bd 04 96 46 be fc 4d b0 be 5b fc 03 3e
       -0.12233286 -0.19393164 -0.34434497 0.12889235
0001b0 07 42 32 3e 1f e0 eb bd c7 97 04 be 90 86 73 3d
       0.17408 -0.11517357 -0.12948523 0.0594545
0001c0 27 56 c0 bd 2d e9 03 bd fb 13 7e be 29 6c 87 3e
       -0.09391432 -0.032204796 -0.2481231 0.26449707
0001d0 50 3d ab bd 99 b2 8a be da 49 83 3d 6d 45 8f 3e
       -0.08361304 -0.27089384 0.064105704 0.27982655
0001e0 a2 c4 de be 24 f5 04 3e b0 73 b0 be 00 10 cf 3d
       -0.43509394 0.12984139 -0.34463263 0.10110474
0001f0 4b f9 d1 3d 9c b9 1e bd a9 a8 ba bd 1c 00 b7 3d
       0.10252627 -0.03875123 -0.091142006 0.08935568
000200 6d 92 66 3e d3 be 3f be d1 4c 53 bd 31 ce d7 bc
       0.22516795 -0.18725137 -0.05158693 -0.026343437
000210 1a 0f 95 3d 05 7e 14 3e a9 a1 f4 3d 46 c8 7c 3e
       0.07278271 0.14501198 0.11944897 0.24685773
000220 60 df e8 3d 04 86 dd 3b e1 09 21 be be 4f 07 3c
       0.113707304 0.0067603607 -0.15726425 0.008258758
000230 32 d2 02 bd 3f 44 9c bd a8 79 3a bd 4f 0e b0 3d
       -0.03193874 -0.076302044 -0.045526177 0.08596479
000240 4b bd 37 3e f2 7e 44 3e b7 c6 1c 3d 3b 3f af 3e
       0.17943303 0.19189051 0.038275447 0.3422793
000250 6a 2f d6 bd 01 0f 1e be ae d8 2b bd e0 c8 20 3d
       -0.10458262 -0.15435411 -0.04195469 0.03925407
000260 48 1e b0 bd c4 55 88 bd 87 b1 c3 3c 1c 6d 2c bd
       -0.08599526 -0.066569835 0.023888363 -0.042096242
000270 4a 09 9c bd c2 f1 1e bc a2 84 ea bd e9 f3 b2 3c
       -0.07618959 -0.009701194 -0.11451079 0.021844821
000280 00 e2 5f 3e f2 64 ae 3d 66 dd 94 bc 94 02 61 bd
       0.21863556 0.085153475 -0.018171977 -0.0549341
000290 d8 4b 85 3e 7a 3c ac bc e9 28 0f be 53 12 59 bc
       0.26034427 -0.021024931 -0.1398045 -0.013248998
0002a0 f9 03 fd bd 6f fe 60 be 35 c4 08 3e b4 18 8b 3d
       -0.12354273 -0.21972059 0.13356097 0.06791821
0002b0 c1 fa 04 bc d1 bf 96 bd 7b 4d a9 bc c5 2b d7 3b
       -0.008116425 -0.07360805 -0.020666828 0.006566497
0002c0 21 22 95 3d 5e 39 a3 3d 94 29 72 be fd 94 92 3d
       0.072819 0.07969926 -0.23648673 0.071573235
0002d0 28 a2 97 be 5f d7 18 3e a0 8b d0 3c 6b f4 09 bd
       -0.29615903 0.14925908 0.025457203 -0.03368036
0002e0 60 76 49 3d 66 a0 77 be 28 3c d4 bd cf 21 f6 3d
       0.049185157 -0.24182281 -0.103630364 0.12018167
0002f0 4e f4 17 bd ac 23 39 3e 88 a3 6b bd cc c2 1f bd
       -0.03709822 0.18080014 -0.057529002 -0.039004132
000300 90 af 2e be 63 08 b1 bd 16 4e ab be 76 a9 7a 3d
       -0.1705916 -0.08644178 -0.33458012 0.061196767
000310 f8 4b 2d bd fe 2c 60 3e 46 3f fa bd 10 87 af bd
       -0.042308778 0.21892163 -0.122191 -0.08570683
000320 26 d2 0b 3e 67 93 11 be 4f 8d ba bd 75 61 1f be
       0.13654384 -0.14216386 -0.09108984 -0.1556452
000330 f2 2b 0b 3d 31 31 ad bc b7 e0 fc bc bf d4 34 bd
       0.033977456 -0.02114162 -0.030868871 -0.044148203
000340 87 78 76 be d8 2a d9 3b 21 ba ef 3d e1 08 37 be
       -0.24069415 0.006627422 0.11705423 -0.17874481
000350 19 45 2e be 87 32 b2 bc 92 be 43 3e c4 66 4d 3c
       -0.17018546 -0.021752609 0.19115666 0.012536708
000360 65 61 01 bd d6 e7 5f 3c 1e 61 51 3d c1 6b b7 bd
       -0.031587023 0.013666114 0.05111801 -0.08956099
000370 ef a5 81 3e 5c c0 18 be e3 af 00 3d 53 67 f1 bd
       0.2532191 -0.1491713 0.03141774 -0.11787286
000380 9d bc e3 bc a2 77 af 3d 20 7d 53 3d ad 99 19 bc
       -0.027799899 0.0856774 0.051633 -0.009375018
000390 dd 5e 0d 3d af 31 81 3d 95 d8 a3 bc 71 35 a3 bd
       0.034514297 0.063083045 -0.020000735 -0.079691775
0003a0 72 f5 c8 3c 7e 21 81 3c f6 16 ec 3c 4c 16 86 3d
       0.0245311 0.01576304 0.028819542 0.065472215
0003b0 f3 94 e2 3d c7 1f 18 be 1c 0d 32 bd ff 59 32 bd
       0.11063566 -0.14855872 -0.043469533 -0.04354286
0003c0 49 67 68 3e dc 6c 79 3d b0 9e 32 be e5 80 59 3d
       0.2269565 0.060894832 -0.17443347 0.05310144
0003d0 43 5b 17 3d 70 0f 30 3c 55 bd 7b 3e 5e 64 a9 be
       0.03695227 0.010745868 0.24583943 -0.33084387
0003e0 ff 59 c9 bc 8f fe 27 bc 0d bc 13 be 3e 02 b7 3e
       -0.024579046 -0.010253563 -0.14427204 0.35743898
0003f0 b2 32 8f 3d 09 8f 25 bd fc 1a 9f bd 37 12 73 bd
       0.06992091 -0.040419612 -0.07768819 -0.059343543

linear_66.b_0_deepcopy_67 f4 [64]
000000 7f 21 f1 3c 80 85 a6 3d 71 08 66 3c 90 0b 4f be
       0.029434917 0.08130932 0.0140400985 -0.20219254
000010 b5 6e e8 bc ee 45 a2 3e f4 ee 99 bc 2c 83 02 be
       -0.028373102 0.31693977 -0.0187907 -0.1274535
000020 10 4b 41 3e 12 ed e7 3c 1f 61 8f bd a0 8d b8 3d
       0.1887629 0.028311286 -0.07000946 0.09011388
000030 b4 ed ae 3c 4d ca 3e 3d df 7e c7 bc 87 53 a2 bd
       0.02135358 0.046579648 -0.024352489 -0.07926088
000040 64 23 84 3d 84 64 a7 bd 1f 43 10 bd 08 83 b9 3d
       0.06452063 -0.08173469 -0.03522026 0.09058195
000050 0a 7e 00 be 84 34 2d 3d 6c 55 c8 bd bf ae 8f 3b
       -0.1254808 0.04228641 -0.09781918 0.004384845
000060 55 56 ac bc bc 53 59 3d f2 c7 5b 3c c6 4b 29 3d
       -0.02103726 0.05305837 0.01341437 0.04133203
000070 5c b9 11 bd ae 34 e7 bc ff be 9d 3d f0 1c 8a be
       -0.035577163 -0.028223362 0.07702445 -0.26975203
000080 b5 e5 89 bd b5 da 2b 3c 57 88 60 3c 7c dd 4a 3e
       -0.06733266 0.010489156 0.013704381 0.19811052
000090 d2 ae d9 bc 05 9c 68 3b 1b ef 14 3d b6 dc 72 bc
       -0.026572619 0.0035493386 0.03636084 -0.014823129
0000a0 e8 b1 80 bd d9 5a a5 3d b4 54 98 bd ca 40 30 bc
       -0.06283933 0.080739684 -0.07438031 -0.010757634
0000b0 89 42 29 3c fa ec 5d bd ac d7 0d bd d0 3b 33 3d
       0.010330805 -0.054181077 -0.03462951 0.043758214
0000c0 39 40 5e 3d 78 b5 b5 bd 3f e8 0d 3d d3 3f 39 bd
       0.054260466 -0.08872503 0.034645315 -0.045226883
0000d0 80 41 61 be f9 e9 44 3e ba 62 bd be 63 78 8b 3e
       -0.21997643 0.19229878 -0.36989385 0.27240285
0000e0 39 be 59 bd c3 c8 a1 3c 0f 71 30 bd f5 19 17 be
       -0.053159926 0.019749051 -0.04307657 -0.14755996
0000f0 a3 f3 4e be 14 f5 a3 3d b0 ce 7d bd 3b a6 a9 bc
       -0.20210128 0.08005729 -0.06196469 -0.020709148

linear_69.w_0_deepcopy_72 f4 [64, 64]
000000 37 9e 9a 3d 2d b9 71 3d eb 0f e9 3b c2 19 9a bd
       0.07549708 0.059014488 0.0071124933 -0.07524444
000010 9f 62 97 3d 8b ef 41 3d 4e c5 24 bb 87 9b 97 3c
       0.07391857 0.047347587 -0.0025142017 0.018506778
000020 9e 6d 3b be f9 cd f4 bc 99 f5 d1 ba 91 56 7a 3d
       -0.18303534 -0.029883372 -0.0016018628 0.061117712
000030 c3 e5 ee bc 3e fe 4e bd 37 6b 6a bd df 10 ce bd
       -0.029162293 -0.050535433 -0.057231154 -0.10061812
000040 e8 ea ac bb b2 4e 8c bc e5 74 ce bc 95 bd 71 bd
       -0.0052770264 -0.017127369 -0.025202224 -0.05901869
000050 92 35 e2 bc ed 6b b3 3b db e7 19 bd 31 eb d9 bc
       -0.027613435 0.0054755122 -0.03757463 -0.026601406
000060 cb ae 94 3c 48 71 0b 3e df 09 19 3d 05 00 42 bd
       0.018149754 0.13617432 0.03736293 -0.0473633
000070 ff 66 ea 3b 18 8d 4b 3d 2f a7 38 bc 92 3d 28 bd
       0.0071533914 0.049695104 -0.011270328 -0.041074343
000080 eb 82 cc 3d d8 ca f2 bd 74 8c 54 3b 75 8b 77 3d
       0.09985908 -0.118550956 0.003243235 0.06043573
000090 2a 48 ad 3d 28 a4 04 bd 8f 88 58 bd 1a a3 03 bd
       0.0846103 -0.032383114 -0.052864607 -0.032137968
0000a0 2c 20 15 be 1b c7 9f bd b3 6b 2f bc 20 b9 c4 3c
       -0.14563054 -0.07801648 -0.01070683 0.024014056
0000b0 0a d9 0d ba ef a1 6c 3c 46 29 a1 3a 0f c5 0a 3d
       -0.00054110645 0.014442905 0.0012295626 0.033879336
0000c0 2d 46 8f bd 43 40 af 3d 26 4e 4b 3c c8 db 09 3e
       -0.06995807 0.08557179 0.012408769 0.13462746
0000d0 7b f0 19 3e 0d 34 a2 3c ee 7a ae 3c 5b 31 59 bb
       0.15033142 0.01980021 0.021298852 -0.003314099
0000e0 cb a4 b3 3c db ae 61 3c 22 c2 60 bd 66 9f ae 3c
       0.021929165 0.013774599 -0.05487264 0.021316241
0000f0 15 b5 21 bd 85 e5 45 3d b6 ad 85 bd 4d 69 ec bb
       -0.039479334 0.04831459 -0.06527273 -0.0072147013
000100 4e f7 4c be a2 c4 ab bd 9f 1e a6 3c ca f3 c9 bd
       -0.20016214 -0.08387114 0.020278273 -0.09860952
000110 23 61 80 3e 67 36 fd bc e2 2f 9a bd a5 1d 42 3d
       0.2507411 -0.03090973 -0.07528664 0.047391552
000120 5a 16 12 3d 20 e9 82 3d f0 e0 d8 bd 1a 32 42 bd
       0.035665847 0.06392121 -0.105897784 -0.04741106
000130 08 fb 21 3d 4b 51 53 3a d6 21 1d 3d b2 41 8e bd
       0.039546043 0.0008061125 0.038362347 -0.06946124
000140 b6 c3 a3 bc bf bb 43 3d ca de 49 bc d5 87 28 be
       -0.019990783 0.04778647 -0.012321183 -0.16458066
000150 2f cf b8 3d 60 b6 35 bc a1 58 2a 3d a1 06 37 bd
       0.09023892 -0.011090845 0.04158843 -0.044684056
000160 8b c6 a8 3c f8 fb 2c bd e6 84 4b bd b9 cb 08 3e
       0.020602485 -0.042232484 -0.04968729 0.13358964
000170 8c 0e 28 bd bd a8 41 bc 1f 0b 7f 3d 38 80 f4 bb
       -0.041029498 -0.0118200155 0.062266465 -0.007461574
000180 57 ee 33 bd 36 56 62 bd 34 99 3d 3d e8 04 82 bd
       -0.04392847 -0.055258 0.046288684 -0.06348592
000190 c2 96 1c bd 63 68 63 bd 79 44 09 be 53 0f 54 3c
       -0.03822971 -0.055519473 -0.13405026 0.012943107
0001a0 ee b5 ab 3d 72 cd 12 3c 88 b7 ae 3b ab 34 8d 3c
       0.0838431 0.008960115 0.005331937 0.017237028
0001b0 f1 f2 e8 3c 60 f8 06 3d 3b ae 8b 3d 38 69 19 3d
       0.028436156 0.032951713 0.06820341 0.03745386
0001c0 fe 6d 16 3d 4b 85 01 bd ef cd 4e bc 09 52 f1 3d
       0.03672599 -0.03162126 -0.012622341 0.11783225
0001d0 6c 3c 73 bc 26 cf 9e 3d 22 ce 10 3d a5 bf 73 bd
       -0.014845949 0.07754354 0.035352834 -0.05950894
0001e0 d7 e3 34 bd ac 29 a5 3d 13 65 85 bb 24 7f b2 3c
       -0.044162598 0.08064589 -0.004070887 0.021789141
0001f0 88 17 9f 3c 4b 20 17 bd d0 0a 69 3d 47 b3 70 bd
       0.0194204 -0.03689603 0.056895077 -0.058764722
000200 38 46 a4 3d a0 b9 b7 3d bc 16 fc bc 44 99 68 bd
       0.08021206 0.08970952 -0.03077256 -0.05678679
000210 9e 5e e6 3c ce 11 52 3d 98 83 b1 3b fb 0f 9f 3d
       0.028121289 0.05128651 0.0054172985 0.0776672
000220 9d 1e d2 3c 9b 8c 85 3c 58 4e a8 3c c3 6c 70 3c
       0.025649363 0.016302397 0.02054517 0.014674368
000230 e6 61 19 3d b0 73 d8 3b 8a 7c 4c 3d b7 f0 b4 bd
       0.03744688 0.006605588 0.049923457 -0.08834975
000240 73 ba 87 bb c0 e7 42 3d cf e0 97 bc fe 71 17 bb
       -0.0041420995 0.047584295 -0.018539814 -0.0023108716
000250 11 6a 70 bd 6a d6 c5 3b a0 6d 20 3c 99 9b b3 bb
       -0.058694903 0.006037523 0.009791762 -0.005481195
000260 e0 57 12 bd a8 2b 13 3e 2f ca e9 3a ae 6d 83 bc
       -0.035728335 0.14372122 0.0017836745 -0.01604351
000270 0c 0f 30 bc 69 7b cd bb 9b 0c e8 bc 3e e7 06 3d
       -0.010745775 -0.006270815 -0.028326323 0.032935373
000280 a7 ee 34 3c 04 ae a0 bd 0c e2 22 bd dd 8a a1 3d
       0.011043227 -0.07845691 -0.039766356 0.07887814
000290 9e fb 69 bc 63 30 9b 3d 69 a9 1d bd af 96 68 3d
       -0.014281182 0.075775884 -0.03849164 0.056784328
0002a0 81 c3 77 3d 23 4d fa bc 1d 5f e9 bc 87 9d 07 bc
       0.06048918 -0.03055436 -0.028487736 -0.008277304
0002b0 16 ec 19 3d b5 75 24 bd 53 07 13 3e 56 3e 82 bd
       0.037578665 -0.040151317 0.14358263 -0.06359546
0002c0 ab c2 dd 3c 3f cf 80 bd b8 36 5b bc 06 94 5b bd
       0.027070364 -0.06289529 -0.013379745 -0.053607963
0002d0 aa f8 24 bd 7b 43 43 bd 71 c1 b1 3c 9b 58 42 bd
       -0.040276207 -0.047671776 0.021698685 -0.047447782
0002e0 e7 62 86 bc 21 3c db bc 0b ab 20 bc 17 6c eb bc
       -0.016404582 -0.02676207 -0.009806405 -0.028738065
0002f0 46 56 08 bd a8 06 26 be ea b4 06 bd c4 ea 93 3d
       -0.0332854 -0.16213477 -0.032887377 0.07222512
000300 71 9a 34 3d ea 37 0a be 45 79 9c bc 72 0f 39 3c
       0.0440926 -0.13497892 -0.019100795 0.011295186
000310 bb 14 11 3e 11 59 16 bd 99 e0 d1 bc 9c 95 92 3d
       0.14168064 -0.036706034 -0.025619792 0.07157442
000320 ee a8 7a be aa e9 8e 3d 80 04 58 3b 68 bd d3 bb
       -0.24478504 0.06978162 0.0032961667 -0.006461788
000330 df d6 02 3d e9 c9 9e 3c 85 ec 44 3d a3 05 6d 3d
       0.0319432 0.019383388 0.048077125 0.057866704
000340 2b a8 bb 3d 91 a1 bd bc 96 b6 8c bd 97 f3 c1 3d
       0.09162935 -0.02314833 -0.06870763 0.09470289
000350 c1 12 c6 bd 08 a5 fd 3a 51 e6 7b 3d 24 71 88 bc
       -0.09671546 0.0019351551 0.061498944 -0.016655512
000360 c0 47 53 be c1 ed fc bb a2 7b b2 bc 54 26 6b bc
       -0.20632839 -0.007718772 -0.021787468 -0.0143524
000370 13 ed 93 3a be 61 1c 3c 71 88 bf bc a2 95 ff ba
       0.0011285864 0.009544788 -0.02338049 -0.001949955
000380 1a 91 0e be 93 50 83 3d 3a 65 6b b9 86 ed 3d bd
       -0.1392254 0.06411853 -0.00022449056 -0.046369098
000390 66 e6 25 be 3e 3b c1 bd 29 83 3a bd 95 7f 35 3d
       -0.16201171 -0.09435128 -0.04553524 0.044311125
0003a0 4b 6b a1 bd 75 5e b6 3c 9a 23 ae ba 1b 80 24 3e
       -0.07881793 0.022261837 -0.0013285757 0.16064493
0003b0 34 96 4b 39 89 1e 0a bd 09 b8 40 3d d1 64 53 3c
       0.00019415544 -0.033720527 0.04705051 0.0129024545
0003c0 df 91 bd 3d bf c1 7b bd 60 f2 f6 39 0b a4 73 bd
       0.09256338 -0.061464068 0.0004710136 -0.059482615
0003d0 ee b9 3c bd 49 63 34 3e c0 23 5a 3d eb 66 3a bc
       -0.046075754 0.17616 0.05325675 -0.011377077
0003e0 86 12 1d bd 79 19 82 bd ca e4 3d 3e 8a ad 12 bd
       -0.038347743 -0.06352515 0.18544307 -0.03581003
0003f0 61 b7 b9 3b 33 6d 1a be 72 38 15 bc 15 21 cb bd
       0.0056676124 -0.15080719 -0.009107696 -0.09918419

linear_69.b_0_deepcopy_73 f4 [64]
000000 68 4c e3 bd 64 b4 88 bd 39 fc 94 bc a6 73 88 bd
       -0.11098558 -0.06675032 -0.018186675 -0.06662683
000010 94 76 71 3e 87 2a 81 bc 36 5c c9 bb 72 6c 85 3d
       0.2358039 -0.015767349 -0.0061450256 0.06514825
000020 14 7e 20 bd eb 67 07 3d d4 e5 b9 3b 4e 6a 2a bd
       -0.039182737 0.03305809 0.0056731496 -0.041605286
000030 f4 71 09 bb 40 cc 16 3b 93 1b 12 3d 4b f4 d5 3c
       -0.0020972462 0.0023009926 0.035670828 0.026117465
000040 64 17 30 3d 4a f8 d8 3c 39 57 92 3d 15 fb 83 bd
       0.042991057 0.026485581 0.07145543 -0.064443745
000050 d7 75 34 bc ad 87 84 bc 21 79 94 3d c9 76 9c ba
       -0.011014423 -0.016177977 0.07249666 -0.0011937256
000060 40 e4 ed bd b3 4c ec 3e fd e2 e9 bb c8 91 f6 bb
       -0.11615801 0.46152267 -0.007137655 -0.0075247027
000070 9e 79 18 bc 64 e8 33 bc 41 ea ad 3a 1d 8e 75 bc
       -0.00930634 -0.010980699 0.0013268666 -0.014987496
000080 c6 0d b9 3b 8a e9 4b 3c 67 fd 6e bb 80 10 7d bb
       0.005647394 0.012445817 -0.0036466958 -0.003861457
000090 27 86 f8 bd 90 60 01 bc 60 a3 3b bc 91 66 54 3c
       -0.121349625 -0.007896557 -0.011452526 0.012963907
0000a0 43 ec 50 3d e1 d5 c4 3c c2 6b 4f 3c 31 f3 56 be
       0.051006567 0.024027767 0.012659969 -0.20991208
0000b0 4b 98 eb bb 27 29 18 bc 30 e3 39 3b b2 3b 54 bc
       -0.0071897856 -0.009287155 0.0028364174 -0.012953686
0000c0 5b fa 9f 3d 3c ac 88 bc 99 43 f1 bb 82 8b cc 3d
       0.078114234 -0.01668369 -0.0073627946 0.099875465
0000d0 85 21 18 bb 3a 50 9b 3e 17 67 92 3d a5 9a ba bc
       -0.0023213339 0.30334646 0.07148569 -0.022778818
0000e0 27 b8 01 bb c6 2b 0a bc 8f db c6 3b 03 d7 4c bd
       -0.0019793601 -0.008433288 0.006068654 -0.05000974
0000f0 b4 fc 41 bd 35 b5 2d be b7 e0 3a 3e 8c f3 95 bd
       -0.047360137 -0.16963656 0.18249784 -0.073218435

linear_68.w_0_deepcopy_70 f4 [64, 64]
000000 c4 62 21 3e e3 1f b5 bd 86 48 d4 bb 36 43 f6 3d
       0.15760332 -0.088439725 -0.006478372 0.12024538
000010 71 c0 a4 3e c1 da a8 bd cb c2 87 be 60 f2 50 3e
       0.3217807 -0.08244849 -0.26515803 0.20404959
000020 24 cf 29 bd 99 f7 7d be 37 e8 ca bc 88 26 8f 3c
       -0.04145731 -0.24801482 -0.024768932 0.017474428
000030 7f c2 8c bd d9 37 77 3d f0 db f5 3d ac 9b c6 bd
       -0.06873035 0.060355995 0.120048404 -0.09697661
000040 9b dd 1a 3d 17 df d9 bc b8 a9 bb 3d 64 4d 20 be
       0.037808996 -0.026595635 0.09163231 -0.15654522
000050 c3 16 e4 bc 74 8e cd bd 4b aa bf be b0 57 a3 3e
       -0.027842885 -0.100369364 -0.3743461 0.31902838
000060 08 3c a0 3e 0c 9e a0 3c 05 bc cf 3c e6 d1 5c be
       0.312958 0.019606613 0.02535821 -0.21564445
000070 ee 91 48 3d aa 9e f6 3d d2 d8 e9 bd 3e d2 4e 3d
       0.048967294 0.120419815 -0.11418308 0.05049347
000080 d8 90 f1 3e 02 83 be 3d bf 64 fe bc c4 e8 fe 3c
       0.4718082 0.093023315 -0.031053899 0.03111685
000090 13 12 d1 3b d5 8b 3a 3e aa 6e 9f 3c 56 dd 1d 3e
       0.0063803284 0.18217404 0.019461948 0.15416464
0000a0 f9 eb ea 3b 0c 72 72 be bf 8c 56 be 44 ca 1a be
       0.0071692434 -0.23676318 -0.20952128 -0.1511622
0000b0 34 86 32 bd 49 53 9b bd 0c 7e 6f be 89 a5 fa bd
       -0.043585017 -0.07584245 -0.23387927 -0.122386046
0000c0 56 49 7c 3c f7 d5 af bc ab 79 a7 be 42 df 13 bd
       0.015398344 -0.021464331 -0.32710013 -0.036101587
0000d0 e3 b2 b3 3d e6 c4 cf bd f6 08 33 39 b1 80 f8 bd
       0.08774354 -0.10144977 0.00017074108 -0.12133921
0000e0 d2 02 2a 3e a3 ad 03 be 8c 0e 43 3e 2d ab 4c 3e
       0.16602638 -0.12859206 0.19048518 0.19987173
0000f0 4c 71 37 be 8d 2d a9 bc c7 cd 09 3e 22 f7 d6 3d
       -0.17914313 -0.020651603 0.13457404 0.104963556
000100 cc 13 e1 bd 8f 17 ec bd 97 75 27 3d 4a a9 c9 bc
       -0.10990104 -0.11527931 0.040883627 -0.024616856
000110 b3 d1 c2 3c 77 82 8c 3c b7 9d d9 3d 28 33 32 3e
       0.023781633 0.017152054 0.10625785 0.17402327
000120 ba 57 1c 3d 11 db 27 3d c0 ac e9 bc 02 60 ea 3d
       0.0381696 0.040980402 -0.028524756 0.11444093
000130 64 17 b3 3e 87 63 2f bd 9d d1 55 3c f0 17 a9 3d
       0.34978783 -0.042819526 0.013050464 0.08256519
000140 40 ba 41 bd 79 6a e0 3c 04 1f 84 3d 66 1c 08 be
       -0.047296762 0.02739452 0.06451228 -0.13292083
000150 bc 2e b9 3d bb 37 a0 be c6 ad 66 bc e5 dd c0 be
       0.09042117 -0.3129252 -0.014079517 -0.37669292
000160 b6 86 ea 3e 83 41 77 3c 72 91 9d 3b 18 d3 1b 3e
       0.458059 0.015091303 0.004808598 0.15217245
000170 a2 cd 7d 3c 70 4d 82 3c 6b bc 4c be 26 f9 84 bd
       0.015490921 0.015906066 -0.19993751 -0.06492834
000180 c4 63 3c 3e 64 80 27 bd af c4 a1 bd a8 dc 87 bc
       0.18397433 -0.040893927 -0.078988425 -0.01658471
000190 a3 33 bc bc 84 2b 32 be 4a 79 47 3d 37 8d fd bd
       -0.022973841 -0.17399412 0.048699655 -0.1238045
0001a0 c9 6c 6c 3d fc eb 96 3d 00 0e 88 bc f7 b8 c6 be
       0.057720933 0.07369229 -0.016608238 -0.38812992
0001b0 18 6d f9 bb 77 5c 5f 3e 50 4b 37 bd 8d 8f d3 bd
       -0.007611882 0.21812616 -0.044749558 -0.103301145
0001c0 8b 4b db be 75 f1 5f 3d 32 11 fe 3d 8d 8b 11 3e
       -0.42831072 0.05467363 0.124056235 0.1421339
0001d0 f2 bc 6f be 25 39 70 3e 61 f0 ab 3c cb df a2 be
       -0.2341192 0.23459299 0.020988645 -0.31811365
0001e0 7e 91 9c bd 88 19 15 3e bf 8a 0a be 9f f3 fa bd
       -0.07644938 0.1456052 -0.1352949 -0.12253498
0001f0 8a 49 bb 3d 7c dd 80 bc 35 ae 3d bd 27 e0 b2 bc
       0.09144886 -0.015730612 -0.046308715 -0.0218354
000200 36 2a 33 be fb 3b 84 3e cb b5 3b bd 36 15 65 3e
       -0.17496571 0.2582701 -0.04582767 0.22371373
000210 79 5c 8f 3c 1a 3f e1 bc ef 44 c2 3d 5c 4b d6 bd
       0.01750015 -0.02749591 0.09485804 -0.104635924
000220 32 21 07 bd a5 01 c0 bc 05 ee d3 bc 3c 31 1a bf
       -0.032990642 -0.023438284 -0.025870332 -0.60231376
000230 62 ad 07 be 9c 1a 0f 3d ca c8 0f bd 3c 49 a3 3e
       -0.13249734 0.034937486 -0.035103597 0.3189181
000240 c7 e1 a9 3d a2 87 8a 3c 1b 6b 0f 3e 1c 43 b2 3e
       0.08295017 0.016910378 0.14005701 0.34816825
000250 a4 d7 28 3e 6b 4c d3 be b3 33 c8 be 6f 9f b5 3d
       0.1648851 -0.4126924 -0.39101943 0.088683
000260 8b 17 1f be 64 27 8a bd 9a d9 a2 3d 48 a8 20 be
       -0.15536325 -0.067457944 0.079516605 -0.15689194
000270 04 1b 1a be af 32 d1 bd 6d fd 1c 3e 80 3b 11 3d
       -0.15049368 -0.10214745 0.1533105 0.035457134
000280 c2 49 7a 3d 49 4c 1f bd 03 01 36 3c 6b 18 a9 bc
       0.061105497 -0.03889111 0.01110864 -0.020641526
000290 e6 e3 c3 3d d3 fe 03 bf 72 af ba 3d a7 f4 09 3d
       0.095649526 -0.51560706 0.09115495 0.033680584
0002a0 76 0a 05 bd ca 8f 04 be 07 8e 50 3e 05 ef da 3b
       -0.03248068 -0.12945476 0.20366679 0.0066813254
0002b0 6d e8 6a 3d 29 98 ac bd 57 b4 1f 3e e5 18 2f bd
       0.057350565 -0.0842746 0.15596138 -0.04274835
0002c0 4a 6a 23 3e 3c 1f ce bd f3 5f 7f 3d 23 14 b1 3d
       0.15958515 -0.10064551 0.062347364 0.08646419
0002d0 2a 2f fa 3a e2 39 24 be 49 6a fc bc 52 6b f6 3d
       0.0019087542 -0.16037706 -0.0308124 0.120321885
0002e0 52 3f 9d bd bb 78 0e 3d 4d 87 1d 3d 77 ce 09 3e
       -0.07678093 0.034783106 0.03845911 0.13457666
0002f0 35 46 da 3d ad 9d 7c 3d 5a 0c 99 3d 70 aa 88 bd
       0.10657922 0.06167381 0.07473059 -0.066731334
000300 35 9e 21 be a4 5c f4 bd 75 64 9c bc ba c1 bd 3d
       -0.15783007 -0.11931732 -0.01909087 0.09265466
000310 95 97 1e 3d 97 b5 90 bc b6 78 c3 bd 15 e4 21 3d
       0.03871878 -0.017664714 -0.09544508 0.039524157
000320 16 dc 2d 3c 03 6e b3 3c 48 c6 63 bd 4a 59 8c 3e
       0.010611555 0.021903044 -0.055609018 0.27411872
000330 0e 20 06 3e 67 cf 70 bc 00 b7 54 bd 2e 31 52 3d
       0.13098165 -0.014697886 -0.051932335 0.051316433
000340 c2 e5 6d bc b1 1e f3 bb 00 4c bb 3d 06 66 80 bd
       -0.014520111 -0.00741943 0.09145355 -0.062694594
000350 58 a4 28 bc b0 1b b2 bc b5 44 91 3e 7c b8 25 bd
       -0.010293089 -0.021741718 0.28372732 -0.04045914
000360 8b 7b b0 bd a9 10 af 3d d4 fe 0c 3e 41 c5 2e 3e
       -0.08617314 0.085480995 0.13769084 0.17067434
000370 f5 cb f1 3c cf 85 12 3e 38 0a 76 3e a2 ac 03 bd
       0.0295162 0.14308856 0.24027336 -0.032147057
000380 46 ce d6 3d 71 19 c1 3c 38 86 8d bc fd e8 c8 bc
       0.10488562 0.023571702 -0.017275915 -0.02452516
000390 5b 1b 16 3d f5 43 a0 3d 20 dc 23 bd 90 0f 77 3e
       0.036647182 0.07825462 -0.04000485 0.2412703
0003a0 85 c6 af 3c 1a 4e b6 bd 3b f8 47 be be 47 ef 3c
       0.021456966 -0.089016154 -0.19528286 0.029209014
0003b0 11 d2 04 3d 65 a6 62 be 30 9f 70 3d 32 1e e0 bd
       0.032426897 -0.22133787 0.058745563 -0.10943259
0003c0 5c 08 2c bd 86 85 91 bc cf dc d7 bd 5d 80 93 bb
       -0.04200016 -0.017763864 -0.10540163 -0.004501386
0003d0 72 1a 13 bf c5 07 87 bd 2f 10 63 3c f1 ff 2b be
       -0.5746223 -0.06593279 0.013858839 -0.16796853
0003e0 a8 82 65 3d 41 82 52 bd 85 39 4a be 06 d9 31 bf
       0.056032807 -0.05139375 -0.19748504 -0.69471776
0003f0 e0 3a 9a bd 19 42 5a 3c 95 ec e7 3d 53 d2 c4 3d
       -0.07530761 0.013321423 0.11324421 0.09610429

linear_68.b_0_deepcopy_71 f4 [64]
000000 8a cd e7 bb 98 7b 2f bc bb 71 5a bb ee e8 b8 bb
       -0.0070740627 -0.010710619 -0.0033331949 -0.0056430018
000010 dc 54 d3 3b 3c d2 56 bc e5 bc 7e 3b 0a a2 8f 3b
       0.006449325 -0.013111647 0.0038869914 0.0043833302
000020 e6 22 97 3b 56 87 fa ba f7 10 87 3b e4 fe 91 bd
       0.0046123145 -0.001911382 0.0041218954 -0.07128695
000030 a5 55 f6 bc ba fc 40 ba e1 72 08 3b 31 a4 7d bc
       -0.030070135 -0.0007361878 0.0020820426 -0.015481041
000040 30 66 75 3b a5 7b 8c 38 62 8f 83 bc d7 85 6d 3c
       0.0037444942 6.698751e-05 -0.016059581 0.014497242
000050 0c 95 4d bb 20 82 99 bc 9e 19 7d 3a 8a 03 48 3c
       -0.0031369356 -0.018738806 0.00096550013 0.012207875
000060 c1 ed 5e bd b5 0c 88 3b 14 c6 f7 3c ed 9c b9 3c
       -0.05442596 0.0041519054 0.030245818 0.022657836
000070 c7 1e f9 ba ae 58 c2 ba 4e 41 d9 3c 71 7f 47 3c
       -0.0019006365 -0.0014827454 0.026520398 0.0121763805
000080 1c f9 fc bb a8 4a 6e 3c 8e fd 5f 3d 2c 03 33 3b
       -0.007720126 0.014544167 0.054685168 0.0027315123
000090 9d b6 38 3c 66 8e 3d bc 5c 62 21 bc e4 6a f6 bb
       0.011274007 -0.011569595 -0.009850111 -0.0075200666
0000a0 42 8b 05 bc 7a 7a ea 3b 6c 8d ca bc 92 2d 47 3c
       -0.008150877 0.0071557136 -0.024725638 0.012156861
0000b0 43 25 b0 3b 62 1a a6 39 10 b9 b0 bc 7d aa a7 3c
       0.0053755357 0.00031681644 -0.02157262 0.020467037
0000c0 65 bd bb 3d 7d 5c 5c bb c6 7d ae bc 68 23 98 bd
       0.091669835 -0.0033624463 -0.021300208 -0.07428628
0000d0 a5 35 1b 3d 9b 6e 74 bc 09 2b 89 bb 56 cc 28 3d
       0.037892956 -0.0149189485 -0.0041860384 0.041210495
0000e0 0f 70 cc 39 6f 99 84 bc 28 6c 02 3d a6 fa 8d 3d
       0.00038993402 -0.016186444 0.031841427 0.06932573
0000f0 3e 38 e2 3b bb fa dc 3b 1f e2 5f 3b 68 35 02 bd
       0.0069036772 0.0067437566 0.0034161878 -0.031789213
